pca_step.onnx (onnx, 459 bytes, 2 tensors)

transform_matrix f4 [15, 2]
0	0x3e9a2ba7	0.3011143
1	0xbaefc3d3	-0.0018292613
2	0x3e0e2322	0.1388059
3	0x3ee1909a	0.44055635
4	0x3e993ece	0.2993073
5	0x3d586f2e	0.052840404
6	0x3cb2fa2a	0.021847803
7	0x3f030dc4	0.5119288
8	0x3e98f2f2	0.29872853
9	0xbd81344c	-0.06308803
10	0x3e8bee3a	0.2733019
11	0x3e59c295	0.21265633
12	0x3e964a96	0.2935378
13	0x3ddb6647	0.10712867
14	0x3e98a518	0.29813457
15	0xbd912ddd	-0.07088826
16	0x3e7c580f	0.24642967
17	0xbe95d2e8	-0.2926247
18	0x3e867db9	0.26267794
19	0x3e7ea393	0.24867086
20	0x3e95911f	0.2921228
21	0xbdfa4c9b	-0.122216426
22	0x3d2eb58e	0.042653613
23	0x3efe7263	0.49696645
24	0x3e950518	0.2910545
25	0xbd750d3d	-0.059827078
26	0x3e931be2	0.2873221
27	0xbe19bd4f	-0.15013622
28	0x3e8df46b	0.2772554
29	0xbe4c63d3	-0.19959955

mean f4 [15]
0	0x233f258c	1.0362082e-17
1	0xa357b901	-1.16943495e-17
2	0xa3704c75	-1.30266165e-17
3	0x241374bc	3.1974422e-17
4	0x24a3d70a	7.105427e-17
5	0xa390b9af	-1.5691151e-17
6	0xa41fbe77	-3.463896e-17
7	0x240b4396	3.0198068e-17
8	0x249e60f0	6.8685796e-17
9	0xa49a485d	-6.690944e-17
10	0xa50bf259	-1.2138439e-16
11	0x243c6a7f	4.0856207e-17
12	0xa50f5c29	-1.2434498e-16
13	0x253b645a	1.6253665e-16
14	0x24f9db23	1.0835777e-16
